Transformer.ck.pth (torch, 103179 bytes, 37 tensors)

encoder_layer.self_attn.in_proj_weight f4 [63, 21]
000000 68 03 41 be aa 68 2c 3e 3d 0c ae bd 9e 66 fd bd
       -0.18848956 0.16836801 -0.08498428 -0.12373088
000010 f5 4c 47 3e f6 9b 4c 3d 51 55 9c 3d 65 99 3c be
       0.1946295 0.049953423 0.0763346 -0.1841789
000020 c5 dc ad bd 78 6f e5 bc 83 bf d3 bd 57 2c 32 3e
       -0.08489374 -0.028007254 -0.10339262 0.17399727
000030 39 ff f1 bd ee f2 78 be 4b b0 6a 3d e6 34 0c 3e
       -0.11816258 -0.2431142 0.057297032 0.13692054
000040 df 10 8c 3d 46 d5 86 3d 64 67 a7 3d 76 39 21 3e
       0.068391554 0.065836474 0.08174017 0.15744576
000050 33 83 95 bd 8d bd e9 bd e2 79 85 3c 55 72 9c 3d
       -0.07300415 -0.11413107 0.01629347 0.076389946
000060 5f 62 5f be 37 b7 6f 3e a7 7f 62 3e b4 ec 45 be
       -0.2181487 0.23409735 0.22119008 -0.19328576
000070 cf 41 a8 bd 1d d0 12 3d cf 3b 09 be 6b e6 02 bd
       -0.08215677 0.035843004 -0.13401721 -0.031958025
000080 5c 2d ed 3d 3f f6 5d be 46 8e 6c be 0a 9a 69 3e
       0.11580917 -0.21675967 -0.23101148 0.22812667
000090 66 3f 66 3b 9b ed 3e bd 6d fa 7c be 15 61 fb 3d
       0.0035133003 -0.046613317 -0.24704905 0.12274376
0000a0 b5 4f a2 bd 95 3f 55 bd 80 d9 aa bc 4b 9e 61 bd
       -0.07925359 -0.05206259 -0.020855665 -0.0550826
0000b0 e0 b5 05 be 0e fa 80 bc 36 81 2f 3e c4 5e bd 3d
       -0.13057661 -0.015744235 0.17139134 0.09246591
0000c0 11 cb 35 bd c8 68 75 be 70 29 10 3e 64 d6 6e 3d
       -0.044383112 -0.23965752 0.14078307 0.058309928
0000d0 0e 05 81 3e 6e 13 83 3e a9 72 34 be 20 b1 5d 3d
       0.2519917 0.2560076 -0.17621864 0.054123998
0000e0 2e 10 4a bd e1 fd 35 3d 94 ba 84 3e 65 be 5a 3e
       -0.049331836 0.04443157 0.25923598 0.21361692
0000f0 58 5d 19 3e fe 65 20 3e c1 85 7e bb 8b b8 f5 bc
       0.14977014 0.15663907 -0.0038837048 -0.029995224
000100 89 5c 45 bc 4f bb ac 3c de ca 98 bd 25 de 1e bd
       -0.012045988 0.02108541 -0.07460569 -0.038786072
000110 19 9d d8 bc 18 64 e6 3d 06 31 75 be a4 78 d4 bd
       -0.026442097 0.1124956 -0.23944482 -0.10374573
000120 3d 6f 66 be 8c 7d 01 bd 8c 40 88 3e d5 a5 6c 3e
       -0.22503372 -0.03161387 0.26611745 0.23110135
000130 3e ce 87 3e 5f a6 27 be 6f de 1a bd 13 16 2d bd
       0.26524538 -0.1637206 -0.037809785 -0.04225738
000140 2d 75 c6 bd 1e c5 56 be 4c 27 44 be 47 dc bc bd
       -0.09690318 -0.20973632 -0.19155616 -0.09221702
000150 98 71 4a 3d a8 d4 15 be 00 b6 28 3e 62 0c da 3c
       0.049424738 -0.14631903 0.16475677 0.026617233
000160 73 5b 8b bd 80 6e 7a 3e a7 6c 3f 3e 06 be 87 3e
       -0.06804552 0.24456215 0.18693791 0.26512164
000170 5b c1 90 3d 58 1b 76 be fc b2 76 3e 21 82 b2 3c
       0.0706813 -0.24033868 0.24091715 0.021790566
000180 a9 08 ca bc df 3a 43 3e 1b 9d 35 3e 05 ec 01 3e
       -0.024662333 0.19065426 0.17735712 0.1268769
000190 76 25 28 3d 1d 69 c0 bc 42 eb 8d bd d5 57 7a be
       0.04105135 -0.023487622 -0.069296375 -0.24447568
0001a0 b9 76 35 be de 9a 57 be 31 03 b6 bd d3 63 24 3d
       -0.1772107 -0.21055171 -0.088873275 0.040134262
0001b0 64 0e 82 be b9 fd 50 bd c1 99 7a 3d a1 61 4e be
       -0.25401604 -0.05102322 0.061181787 -0.2015443
0001c0 c7 d3 db bd ea 8d 8c 3d 1a 43 42 3d 13 45 d4 bd
       -0.10733753 0.068630055 0.047427274 -0.10364737
0001d0 50 b3 91 bd 95 84 1c 3e 77 8a 67 be 4f c0 d7 bd
       -0.07114279 0.15284951 -0.22611414 -0.10534727
0001e0 3a 5c 72 3d 79 04 3d 3e 74 fd e6 3d c0 a9 ab 3d
       0.059169985 0.18458737 0.11278811 0.083819866
0001f0 36 7a 78 3d b9 69 7d be f1 cf d7 3d 54 38 08 3e
       0.060663424 -0.24747361 0.105377086 0.13302737
000200 cf 1b 8b 3d 14 fa eb 3d 6c fb a2 3c 95 c2 b5 3d
       0.067924134 0.11522308 0.019895278 0.08875004
000210 b2 b8 aa 3a 3c c3 55 3e 39 4e 35 bd 9a 47 dc bd
       0.0013025014 0.20875257 -0.044264052 -0.107558444
000220 d7 89 24 3c 43 67 82 be 2b f5 49 be e8 14 13 be
       0.010042629 -0.25469407 -0.1972243 -0.14363444
000230 73 32 7f 3e 87 06 85 be a6 cc 0a 3c a1 42 7d be
       0.24921589 -0.25981542 0.008471644 -0.24732448
000240 01 a3 83 be 62 2a 52 3e 84 28 39 3e 8a 76 4a 3d
       -0.257103 0.2052398 0.18081862 0.049429454
000250 ba 80 00 3e e6 72 a7 3d 96 7e 69 be bb 08 9c 3c
       0.12549105 0.08176212 -0.22802195 0.019047132
000260 48 dc 70 3e f3 3b 92 bd 05 11 40 be f1 36 2a 3c
       0.2352153 -0.07140341 -0.18756492 0.010389076
000270 fb 68 72 3e 4e af 7e 3e 7e 8c 4b bd d9 a4 08 be
       0.2367286 0.24871561 -0.04969453 -0.13344134
000280 f0 50 0c be 2f ba df bd 34 b6 ba 3c 2d 95 27 be
       -0.1370275 -0.109241836 0.02279196 -0.163655
000290 55 32 87 bb 01 01 3c 3e 5b 1a 48 3e 67 be 59 3e
       -0.004125873 0.18359758 0.19541304 0.21264039
0002a0 7e f6 b3 bc 57 85 7f be 0f 3b 22 3e 3f 13 31 bc
       -0.021968123 -0.24953209 0.15842842 -0.010807811
0002b0 48 8d 44 3e 5f e6 86 be 07 06 5a 3e 32 c5 66 3d
       0.1919452 -0.26347634 0.21291362 0.056340404
0002c0 bb d4 86 3e 96 3b b6 bd 44 5a 72 be ec af 2c 3e
       0.26334175 -0.08898084 -0.23667246 0.16863984
0002d0 a3 1e 8d bd 6d c0 c0 bd d3 cb 25 be 28 6a e0 bd
       -0.06890609 -0.09411702 -0.16191034 -0.10957748
0002e0 33 b4 81 be 18 c5 b7 3d 2d b0 24 3e 16 6c 36 3e
       -0.25332794 0.089731395 0.1608283 0.17814669
0002f0 de fd 65 3e 3d 21 97 bd 74 81 c1 bd 91 fe 07 be
       0.22460124 -0.073793866 -0.09448519 -0.13280703
000300 3a 57 98 3d cf 90 54 be a5 f6 54 3e c4 67 87 be
       0.07438512 -0.20758365 0.20797212 -0.26446354
000310 1a 9f ef 3d c0 ae 87 3e 46 21 6a be f9 12 00 be
       0.11700268 0.2650051 -0.22864255 -0.12507237
000320 e0 d2 2c 3e 7d 4a 20 bd e9 a9 78 3e 31 a6 1d 3e
       0.16877317 -0.039133538 0.24283566 0.15395428
000330 ca 31 16 be 43 47 fc 3d 40 41 c8 3d d2 15 88 3d
       -0.1466743 0.123182796 0.097780704 0.06644787
000340 d2 b6 a2 bd 75 93 dd 3c c7 34 79 3e 43 7b 8e bd
       -0.079450265 0.027047852 0.24336539 -0.06957104
000350 39 c7 ae bd f6 0a f1 bd f3 e0 32 3e 63 b2 14 3e
       -0.085340925 -0.11769669 0.17468624 0.14521174
000360 9d 3d e2 3d 95 fc 57 3e ec d2 07 3e d5 8a a6 3d
       0.11046908 0.21092446 0.13264054 0.08131949
000370 df 7c 39 3d 1f 98 a9 3d 9f bd 1a be c9 1d ce bd
       0.045285102 0.08280968 -0.15111397 -0.10064275
000380 6e 7f 63 bc d5 a9 7d be 42 8f 9a bd 12 a5 02 be
       -0.013885362 -0.24771817 -0.075468555 -0.12758282
000390 23 f6 c9 bd 17 c6 6c be 9a d9 58 bd b7 e8 2c 3e
       -0.098614 -0.2312244 -0.052941896 0.16885649
0003a0 87 de e4 3d 68 47 80 bd 50 5c 7b be 30 37 2f 3d
       0.11175256 -0.0626362 -0.24546933 0.04277724
0003b0 9b 0a 49 3e 9c 09 48 be 66 fe 69 3e dd 35 24 3e
       0.19632952 -0.19534916 0.22850952 0.16036172
0003c0 5a 63 dd bd 6b cc 74 3d 9b ab ec 3d 18 e3 20 3c
       -0.108099654 0.05976526 0.11556169 0.009819768
0003d0 1d 2c 9d bd 76 75 80 3e b4 06 84 3e 79 3c 6b bd
       -0.076744296 0.25089616 0.25786364 -0.057430718
0003e0 58 90 b7 3c 8a 0e c9 bd 7b 3a 3e 3e 6d 78 2c 3d
       0.022407696 -0.09817226 0.18576996 0.042107034
0003f0 fb 98 55 be 8e 60 7e be a3 09 63 3e d0 55 88 be
       -0.20859139 -0.2484152 0.22171645 -0.2662797

encoder_layer.self_attn.in_proj_bias f4 [63]
000000 00 00 00 00 00 00 00 00 00 00 00 00 00 00 00 00
       0.0 0.0 0.0 0.0
000010 00 00 00 00 00 00 00 00 00 00 00 00 00 00 00 00
       0.0 0.0 0.0 0.0
000020 00 00 00 00 00 00 00 00 00 00 00 00 00 00 00 00
       0.0 0.0 0.0 0.0
000030 00 00 00 00 00 00 00 00 00 00 00 00 00 00 00 00
       0.0 0.0 0.0 0.0
000040 00 00 00 00 00 00 00 00 00 00 00 00 00 00 00 00
       0.0 0.0 0.0 0.0
000050 00 00 00 00 00 00 00 00 00 00 00 00 00 00 00 00
       0.0 0.0 0.0 0.0
000060 00 00 00 00 00 00 00 00 00 00 00 00 00 00 00 00
       0.0 0.0 0.0 0.0
000070 00 00 00 00 00 00 00 00 00 00 00 00 00 00 00 00
       0.0 0.0 0.0 0.0
000080 00 00 00 00 00 00 00 00 00 00 00 00 00 00 00 00
       0.0 0.0 0.0 0.0
000090 00 00 00 00 00 00 00 00 00 00 00 00 00 00 00 00
       0.0 0.0 0.0 0.0
0000a0 00 00 00 00 00 00 00 00 00 00 00 00 00 00 00 00
       0.0 0.0 0.0 0.0
0000b0 00 00 00 00 00 00 00 00 00 00 00 00 00 00 00 00
       0.0 0.0 0.0 0.0
0000c0 00 00 00 00 00 00 00 00 00 00 00 00 00 00 00 00
       0.0 0.0 0.0 0.0
0000d0 00 00 00 00 00 00 00 00 00 00 00 00 00 00 00 00
       0.0 0.0 0.0 0.0
0000e0 00 00 00 00 00 00 00 00 00 00 00 00 00 00 00 00
       0.0 0.0 0.0 0.0
0000f0 00 00 00 00 00 00 00 00 00 00 00 00
       0.0 0.0 0.0

encoder_layer.self_attn.out_proj.weight f4 [21, 21]
000000 b9 1a cb bc 42 15 2b be 45 3c 0f be 0e 13 8f bc
       -0.024793016 -0.16707328 -0.13987835 -0.01746514
000010 7d 52 d0 bb 75 2f 39 3e bb ed 18 be df 80 f0 3a
       -0.0063574896 0.1808451 -0.14934437 0.0018348953
000020 82 62 d2 3d 91 a7 b6 3c 2d ed bb bd a5 65 79 3d
       0.10272695 0.022296699 -0.09176097 0.06088795
000030 f6 a4 20 3e 4e 38 7b 3c 45 c7 45 be 01 48 56 3e
       0.15687928 0.015333248 -0.19314297 0.20925905
000040 e0 6f 35 3e 7f ca 32 3e a9 95 ba bd 64 cb 45 bd
       0.17718458 0.17460059 -0.09110577 -0.04828967
000050 2a ff 44 3e 96 f8 07 3e 57 e5 cb 3c c9 ff 80 bd
       0.19237962 0.13278422 0.024889631 -0.06298787
000060 64 0b 2e be 27 2a 4c be d4 06 d7 3c 34 b2 12 3e
       -0.16996533 -0.19937955 0.026248373 0.14325792
000070 53 8f 4a be 08 24 af 3c 5c 85 53 be 7e c4 aa bd
       -0.19781236 0.021379486 -0.20656341 -0.08338259
000080 06 d1 2d be ac 42 28 be eb 5a a9 bd e1 f9 47 3e
       -0.16974267 -0.16431683 -0.08269294 0.19528915
000090 b5 98 fa bd 6d ad 08 3e 83 78 5e be 54 ff 09 3e
       -0.12236158 0.13347407 -0.21725659 0.13476306
0000a0 37 08 be bd c2 d2 67 3c 78 8e 18 3e 06 45 e3 3d
       -0.092789106 0.01414937 0.14898098 0.110971496
0000b0 ba 58 e5 3c 15 4d 52 be 50 97 2a be 5f 0a 01 3e
       0.02799641 -0.20537217 -0.16659284 0.12601613
0000c0 c5 65 5a 3e f8 8a f7 bc 94 a0 4c 3e a0 f2 1f 3c
       0.21327884 -0.030217633 0.1998313 0.009762436
0000d0 82 7b 5b bc ef 86 0b 3e 96 c0 ca 3d d1 1a fc 3b
       -0.013396146 0.13625692 0.09900014 0.0076936265
0000e0 d8 f5 09 3e ec 79 42 be 02 46 2e be 9b 3e 41 3e
       0.13472688 -0.18991822 -0.17018893 0.18871538
0000f0 1e dc 3f 3e fc 94 3a 3e 16 9c 35 3e bd a7 34 3d
       0.18736312 0.18220896 0.17735323 0.04410528
000100 d2 d1 c7 bc d8 fd 9c bc d0 1e 0a 3e 57 df c1 bd
       -0.024392042 -0.01916401 0.13488317 -0.09466427
000110 25 c3 6a bd b2 e9 19 3d 20 1c 36 3e 2b 3b a4 3d
       -0.05731501 0.037576385 0.17784166 0.08019098
000120 f9 5d 1a 3e 2c 65 fc bd cf 5a c7 bd 74 8f 43 be
       0.1507491 -0.123239845 -0.09734117 -0.19097692
000130 f8 f1 4b 3e 1e 00 e8 3d aa 9c 4d bd 65 c1 01 3e
       0.19916523 0.11328147 -0.050198235 0.1267143
000140 5f a4 99 3d 89 42 42 3e cc 79 40 3e ba e0 ee 3c
       0.075020544 0.18970694 0.18796462 0.029159892
000150 3c da 24 be e9 76 29 3e e7 df b4 3d 15 98 10 3e
       -0.16098875 0.16549267 0.088317685 0.14120515
000160 96 e4 3a be cd 41 21 3e 65 2d 46 3d 30 67 06 be
       -0.18251261 0.15747757 0.048383135 -0.131253
000170 0e 88 c9 bc 6e 25 39 3e 70 83 59 be be b4 81 3c
       -0.024601009 0.18080685 -0.21241546 0.015833255
000180 8b 15 b9 bc 1b ae 38 3c 6b 8e fc 3d 18 58 bb bc
       -0.02259328 0.011271979 0.123318516 -0.022869155
000190 dc 49 97 3c 7b 6f b3 bd 29 0f 30 bd d9 e3 5b 3e
       0.018467836 -0.087614976 -0.042983208 0.21473636
0001a0 be 0a d7 3d 32 fd 3f 3e 84 c7 3c be 05 ef 6e bd
       0.10500096 0.1874893 -0.18435484 -0.058333416
0001b0 15 51 00 3e 78 d5 90 bd 9c 06 60 3c bb 28 96 3d
       0.1253093 -0.07071966 0.013673451 0.073319875
0001c0 a5 38 9c 3d 83 93 29 3e 78 ae 50 3e 28 0a 55 3e
       0.076279916 0.16560178 0.20379055 0.20804656
0001d0 1b 1a 39 3e 71 98 34 be 7b b8 42 3e 59 a9 3c be
       0.18076365 -0.17636277 0.19015686 -0.18423976
0001e0 fe 65 e2 3d 56 12 4f 3e 1a 7f 3e be 42 4c 24 be
       0.1105461 0.20221838 -0.18603173 -0.16044715
0001f0 e5 b3 94 bd 0a 46 9b bd 34 a1 5e 3e 2d a1 27 bd
       -0.07260875 -0.07581718 0.21741182 -0.040925194
000200 44 bb f1 3d 03 d2 40 be f7 73 3a be 89 17 08 3e
       0.11803296 -0.18830113 -0.182083 0.13290228
000210 b8 c8 e7 bd 54 2e 33 bd 2b a7 0e 3e 0d 9e 0c be
       -0.11317581 -0.043745354 0.13930957 -0.13732167
000220 dc b5 c3 bd d2 bc 4d be ed e0 0e be 25 7b 44 3d
       -0.09556171 -0.2009156 -0.1395299 0.047969002
000230 5e 32 56 be 7b c2 f6 bc 8a f6 27 be ba 3b 50 be
       -0.20917651 -0.030122032 -0.16402641 -0.20335284
000240 4b fa 17 be 23 b9 39 be 0c aa 9c 3c d5 1d 81 bd
       -0.14841573 -0.1813703 0.019124053 -0.06304518
000250 43 d5 68 3d 00 54 9d bd 67 0f 49 3e 8f 65 26 3e
       0.056844007 -0.07682037 0.19634782 0.16249679
000260 ed af 2b be ca 30 b6 3d 47 7d be 3d eb a0 df bd
       -0.16766329 0.088960245 0.093012385 -0.109193645
000270 3c 90 8a 3d 1a 46 37 bd a0 0c af bc 8e 87 53 3e
       0.06765792 -0.04474459 -0.021368325 0.20657179
000280 9d 00 55 3e a3 fe 54 be b6 bc 03 be 3b 25 41 bc
       0.20801015 -0.20800261 -0.12864956 -0.011788662
000290 9f 13 46 3c 3e 50 37 3e 39 1e e2 ba b2 df 34 be
       0.012089639 0.17901704 -0.0017251439 -0.17663458
0002a0 31 c7 87 3d 2b 1b 1f be c4 79 f4 3d de 10 84 3d
       0.066297896 -0.15537708 0.119372874 0.0644853
0002b0 5b 18 fd 3d 8b c4 70 bd 41 c2 78 3d 8c d1 18 be
       0.12358161 -0.058781188 0.06073213 -0.14923686
0002c0 65 1f 31 3e a5 92 55 3e 7d d3 46 3e fc 73 4e 3e
       0.17297132 0.20856722 0.19416614 0.20161432
0002d0 b0 67 fa 38 58 84 4c be ef 22 c2 bd 38 ce fb bc
       0.00011940242 -0.1997236 -0.09479319 -0.030737981
0002e0 d4 ca f6 3c 0c 34 ea bd fd 4f d2 bd 2b 65 24 be
       0.030126013 -0.114357084 -0.10269163 -0.16054218
0002f0 db ab 48 3e 99 80 a1 bd ae 08 12 bd 33 39 1f be
       0.19596808 -0.07885856 -0.03565281 -0.15549164
000300 eb 69 4d be d4 25 5c 3d 5c a7 32 bd ca cc 05 3c
       -0.20059936 0.053747013 -0.043616638 0.008166501
000310 d0 5f ef bd 79 7a 5c be 76 00 db bd b1 54 d7 3d
       -0.11688197 -0.21531095 -0.10693447 0.105142005
000320 fb e1 b6 3d ce d0 84 bd 35 7a cb 3d c7 89 37 bd
       0.08929821 -0.06485139 0.099354185 -0.04480913
000330 54 ce e6 bd 97 1e 2a be fb d0 00 bc 11 28 c1 3d
       -0.11269823 -0.16613232 -0.007862325 0.0943147
000340 31 bf 07 be d4 15 4f 3e 17 aa 41 be 79 10 0c be
       -0.13256527 0.2022317 -0.1891254 -0.13678159
000350 83 dd 39 be de 3b d7 3d e1 3a cc 3d d4 59 10 be
       -0.18150906 0.10509466 0.09972168 -0.14096767
000360 4c 9b 11 3e 72 d5 f8 3d 17 4d 22 be bb 72 47 be
       0.14219397 0.121500865 -0.1584972 -0.1947736
000370 bb 85 29 be 71 7d f2 3d 86 45 2e 3e 44 cd b6 ba
       -0.1655492 0.11840332 0.17018709 -0.0013946672
000380 06 ea 3c be ea 44 13 3e 01 fc 02 be af 80 3a 3d
       -0.18448648 0.14381757 -0.12791444 0.04553288
000390 10 7d 4a be 89 9d 89 3d 7a 0f b4 3a d5 49 b9 3d
       -0.1977427 0.067195006 0.0013737523 0.090472855
0003a0 08 ec 82 bd 57 7b 54 3d 82 88 f0 3b 4c 71 f8 3d
       -0.06392676 0.05187544 0.0073404917 0.12130985
0003b0 97 b9 54 be 29 cf 06 3c e2 40 8a bd 77 35 fc bd
       -0.20773922 0.008228102 -0.06750657 -0.12314885
0003c0 53 9c 12 be f5 1b 63 3d 82 50 22 be da bf 33 3d
       -0.14317445 0.055446584 -0.15851024 0.043884136
0003d0 a1 f0 52 3e a1 04 31 bd 77 80 3a 3d 66 db 84 bd
       0.20599605 -0.043217305 0.04553267 -0.064871594
0003e0 f2 4e 45 be de 15 3c be 52 92 58 3e 64 48 5f 3e
       -0.19268396 -0.18367717 0.21149567 0.21804959
0003f0 7f ed e9 3d f8 f3 55 3e 59 61 16 3e 81 f8 0f be
       0.11422252 0.20893848 0.14685573 -0.1405964

encoder_layer.self_attn.out_proj.bias f4 [21]
000000 00 00 00 00 00 00 00 00 00 00 00 00 00 00 00 00
       0.0 0.0 0.0 0.0
000010 00 00 00 00 00 00 00 00 00 00 00 00 00 00 00 00
       0.0 0.0 0.0 0.0
000020 00 00 00 00 00 00 00 00 00 00 00 00 00 00 00 00
       0.0 0.0 0.0 0.0
000030 00 00 00 00 00 00 00 00 00 00 00 00 00 00 00 00
       0.0 0.0 0.0 0.0
000040 00 00 00 00 00 00 00 00 00 00 00 00 00 00 00 00
       0.0 0.0 0.0 0.0
000050 00 00 00 00
       0.0

encoder_layer.linear1.weight f4 [128, 21]
000000 f6 48 5c bd 9d 6b fb 3d 68 3e 8c 3d eb 03 0c 3e
       -0.05378052 0.12276385 0.068478405 0.1367337
000010 8e 3a b1 3d 63 a7 f8 bd 97 4e ba 3d 02 a6 10 be
       0.086537465 -0.121413015 0.09097021 -0.14125827
000020 f1 21 57 3d f5 52 48 be bf 33 cc 3d 7e d3 8c bd
       0.052522603 -0.19562896 0.09970807 -0.068762764
000030 47 8c e6 bd 55 e2 3b 3e 00 26 dd 3d 00 3d 60 bd
       -0.112572245 0.18348058 0.107982635 -0.054745674
000040 b6 ea 28 be 76 f0 51 be 63 44 0b 3e 2e f4 9f bd
       -0.16495785 -0.20501885 0.13600306 -0.078102455
000050 7c 72 93 3d ce 27 80 3d 9f 3c b3 3c 79 e4 17 be
       0.071995705 0.06257592 0.021879492 -0.14833249
000060 60 ef a9 3d 0d 97 a0 bd 29 9d 32 bd 33 85 d8 3c
       0.0829761 -0.07841311 -0.04360691 0.026430702
000070 76 13 af bd 00 f7 d8 bb fd ec be 3c f3 e5 d5 bd
       -0.08548634 -0.0066212416 0.023306364 -0.1044425
000080 bb af 79 3d c8 41 1a 3e 5f fa 76 3d e6 5d 26 3e
       0.060958605 0.15064156 0.060297366 0.16246757
000090 0d 38 15 3e 3c ff 12 be 56 92 7e 3d ed 8c 43 be
       0.14572163 -0.14355177 0.062151276 -0.19096728
0000a0 74 96 8a bd 3e 36 09 be 7f b5 0e 3d 15 d6 1a bd
       -0.06766978 -0.13399598 0.034841057 -0.03780182
0000b0 60 62 c4 bd ed 51 44 be 59 87 10 be 8d 5d 41 3e
       -0.09589076 -0.19171877 -0.14114131 0.18883343
0000c0 43 fe 59 be 01 de f1 3d 46 f2 26 bd 26 3f 14 be
       -0.212884 0.11809922 -0.040758394 -0.14477214
0000d0 f3 2f 54 be 9b 8b 7c bd 70 32 6b 3d 43 77 ba bd
       -0.20721416 -0.061656576 0.057421148 -0.091047786
0000e0 40 4b 2f 3e 75 b2 00 3d 9f 8c 9f bd 12 4e b6 3d
       0.1711855 0.03142019 -0.07790493 0.089016095
0000f0 2c 92 ac bd 25 62 de 3d 1b 18 09 be 05 ca 24 be
       -0.084263176 0.10858563 -0.13388102 -0.1609269
000100 a9 5e c6 bd b1 20 ef bd aa 7e 02 be 0b 74 40 be
       -0.09686024 -0.11676157 -0.12743631 -0.18794267
000110 f5 e9 51 bd ed 95 1e 3e ea db 31 be a1 f3 a0 3d
       -0.05124851 0.1548688 -0.17369047 0.078589685
000120 7d cc a0 3d 21 d1 16 be 56 82 35 3c b6 aa 0a be
       0.07851503 -0.14728214 0.011078438 -0.13541684
000130 69 61 e1 3d 50 53 60 bc 3b f1 9c 3d 28 06 3e 3e
       0.11004908 -0.013691738 0.076631986 0.18557036
000140 fa 2e be bd 44 2c 07 be 68 03 2f 3c 4d 9f 62 bd
       -0.09286304 -0.1320048 0.010681964 -0.055327702
000150 8d b2 05 3e bf 18 e1 bd 70 b5 3f 3e ba d1 53 3d
       0.13056393 -0.10991048 0.18721557 0.051713683
000160 4f 6c 17 3d b0 3f 23 3e 02 d4 4e 3d c7 e0 ae bd
       0.036968525 0.15942264 0.050495155 -0.085389666
000170 e0 71 24 3e 90 4c 91 3d f4 a6 5b be 30 a5 3e 3e
       0.16059065 0.07094681 -0.21450406 0.18617702
000180 0a ee cf bd cc 53 18 be ba 77 3e bd 24 06 ba 3d
       -0.10152824 -0.14875716 -0.0465009 0.090832025
000190 e4 b5 7b 3c da 7f fc bd 47 67 cf 3d 6c cc 1d 3e
       0.01536319 -0.12329073 0.101271205 0.15410012
0001a0 3b b6 e5 3d c5 96 38 3e b5 13 49 3e 2f 62 01 be
       0.11216398 0.18026264 0.19636424 -0.1263511
0001b0 98 ec 33 be b9 56 5e be d8 0d bf 3d f2 35 0a be
       -0.17570722 -0.2171277 0.09328812 -0.13497141
0001c0 ea bd 3e be 9f e3 39 bd fb 84 1b bc 9d db f3 3c
       -0.18627134 -0.045383092 -0.009492154 0.029767806
0001d0 70 1b 5d 3e b8 b0 c3 3c 91 be f6 3d 28 5b a7 bb
       0.21592498 0.023887977 0.120480664 -0.005107302
0001e0 43 51 4c 3e 3e 92 c1 3d 59 0f 19 be cf 74 80 bd
       0.19952874 0.094517216 -0.14947261 -0.062722795
0001f0 51 42 f7 3d 8e a7 4e 3e 75 45 9a bc c4 36 07 be
       0.12073196 0.20181105 -0.018831948 -0.13204485
000200 3b c0 51 3e 6b 0c 85 3d 32 6e 09 be ff b9 5c 3c
       0.20483486 0.06496509 -0.13420942 0.013472079
000210 c6 bf 09 3e d3 72 e6 bc 53 45 87 bd ae 9f 54 be
       0.13452062 -0.028130924 -0.066050194 -0.20764038
000220 f7 01 62 3d eb fc 36 be 2a 72 34 3d 23 f7 07 be
       0.055177655 -0.17869918 0.044054188 -0.13277869
000230 e6 b0 61 bd 87 a1 51 3e bc 74 bf bd 7b f7 51 be
       -0.055100344 0.20471774 -0.09348437 -0.20504563
000240 a5 80 93 3d 9c 2d 4c 3e a6 fe d0 bd 69 b3 4f 3b
       0.07202271 0.19939274 -0.1020482 0.003169263
000250 14 b7 39 3e d6 29 b0 bc 92 af a5 3d 89 1e 45 3e
       0.18136245 -0.021504324 0.08090128 0.1924993
000260 cf be ea 3d fe b3 c7 3d 29 28 1a be a0 17 3c 3e
       0.11462175 0.09751128 -0.15054382 0.18368387
000270 d1 d5 ad bd 30 81 a5 bc 1a 07 15 3e 25 31 c2 3c
       -0.08488048 -0.020203203 0.1455349 0.023705075
000280 79 bf ef bd 5a 13 c4 3b 60 bc eb 3b 27 c3 0a be
       -0.117064424 0.005983752 0.007194087 -0.13551007
000290 76 21 0e bd 6a 65 d2 3a 90 ad 90 bd 0e 69 c9 bd
       -0.03469988 0.0016051952 -0.070643544 -0.09834491
0002a0 d7 b2 b4 bd e8 25 0a 3e 9d ab 22 3d 68 6e 0b 3e
       -0.088231735 0.13491023 0.039714444 0.13616335
0002b0 ce 9b 11 be ff 69 33 3e c5 6e 2b 3e 9e 8c 00 be
       -0.14219591 0.17520903 0.16741474 -0.12553641
0002c0 42 38 c5 3d f7 2f 3c 3b 84 32 52 3e cc b1 15 be
       0.09629871 0.0028715113 0.20527083 -0.14618605
0002d0 79 ba dc 3d 12 a5 55 bd ce 3b 31 be e1 4e c6 3d
       0.10777754 -0.052159376 -0.1730797 0.09683014
0002e0 fc d2 e8 bd b0 f1 45 be 9c 1a 4d 3c f9 7f 6f bd
       -0.11368367 -0.19330478 0.012518551 -0.058471654
0002f0 4f 1a 0b be d1 3f 6f 3d 96 90 45 be 83 64 5d 3e
       -0.13584255 0.05841047 -0.19293436 0.21620373
000300 45 71 41 be d9 aa 13 be 28 83 ac 3c 1f e0 1b 3e
       -0.18890865 -0.14420642 0.021058634 0.15222214
000310 13 df 23 3e 1c 3a 11 be 2b bc 84 bd 0f a3 c1 bd
       0.16003065 -0.14182323 -0.06481203 -0.09454929
000320 80 38 34 b9 17 10 63 3d 03 2a 50 3c 66 5b 76 bd
       -0.00017187186 0.055435266 0.012705329 -0.060145758
000330 78 18 c8 bc 39 3c 3b be d6 20 36 be ab d9 08 3e
       -0.02442573 -0.18284692 -0.17785963 0.13364284
000340 58 52 55 3e a4 7d 18 3e 3c 8f a0 3d 6e bf 75 3d
       0.20832193 0.14891678 0.0783982 0.059997015
000350 1b 8a 0b bd 83 d0 c7 bd d8 9e 36 3e aa 3d 03 3e
       -0.034067255 -0.09756567 0.17834032 0.12816492
000360 29 f0 9e bd a9 68 35 3e 5b 91 27 3d 8f 6d 2a 3d
       -0.07760651 0.17715706 0.040910106 0.04160839
000370 b0 19 44 be b0 c3 55 3e b2 ee c6 bd ec bf 30 be
       -0.19150424 0.2087543 -0.09713496 -0.17260712
000380 d6 a2 e5 3d c8 3d 94 bc b4 da e0 bd aa da 2d be
       0.11212699 -0.018095866 -0.10979214 -0.16977945
000390 d8 d8 dd bc 75 eb 4b 3e 43 62 60 bd 7e b7 39 be
       -0.027080938 0.19914038 -0.05478121 -0.18136403
0003a0 79 4b 29 3e 0f 2d 0a be 69 c5 42 be 70 33 85 3d
       0.16532697 -0.13493751 -0.19020618 0.065039515
0003b0 f1 a1 0c be b1 b1 46 be 3f 30 58 be 9b 55 25 be
       -0.1373365 -0.19403721 -0.21112154 -0.16145937
0003c0 a7 8a eb 3d ac ec 2a be db b7 55 be c8 fc a4 3d
       0.11501055 -0.16691846 -0.20870917 0.08056027
0003d0 a0 60 1e be 74 81 e0 3d 04 eb 4c 3e eb 2b c3 bd
       -0.15466547 0.10962191 0.20011526 -0.09529861
0003e0 1a be 12 be ce 42 3c be 85 97 b4 3d 85 7a 29 bd
       -0.1433033 -0.18384859 0.088179626 -0.04137661
0003f0 16 38 54 be 7b ac 46 bd 04 c5 0a be a4 ad 55 be
       -0.2072452 -0.048504334 -0.13551718 -0.2086702

encoder_layer.linear1.bias f4 [128]
000000 1c 12 83 bd 56 01 2c 3e 34 f4 b1 3c 8f 2a be 3c
       -0.063999385 0.16797385 0.02172289 0.023213653
000010 af 39 89 3d 2b f4 4c 3e a6 4e 9e 3d d0 f6 1a 3c
       0.067004554 0.20015018 0.07729845 0.009458259
000020 ec 08 13 bd 0b 8f 0b bd 3c e2 7d bd 4a 05 a2 bd
       -0.03589718 -0.034071963 -0.061983332 -0.07911165
000030 36 86 02 be b6 7e b9 3d 5e c8 2d 3e 24 65 95 3d
       -0.1274651 0.09057371 0.16970965 0.07294682
000040 80 c8 0a 3e d8 f4 13 3c 3b 2a 24 bd fb 02 80 bc
       0.13553047 0.009030543 -0.040079337 -0.015626421
000050 12 e6 c8 3d 5f a6 8d bd 7d c6 44 3e 64 85 47 3e
       0.098095074 -0.069164984 0.19216342 0.19484478
000060 f7 27 73 ba 57 e6 b3 bc d8 0c 0a 3e 50 fa c3 bc
       -0.00092756696 -0.02196042 0.13481462 -0.02392307
000070 82 ac b1 3d 78 a7 de 3d 02 00 55 be 2d 7b 85 3a
       0.086754814 0.10871786 -0.20800784 0.0010183804
000080 66 93 17 3d 00 45 0d be 55 ec e2 3d 52 3c 1c 3e
       0.037005804 -0.13795853 0.11080233 0.15257385
000090 40 51 13 3e b0 1b 21 3e 2c 92 5c be 42 f3 4f be
       0.14386463 0.15733218 -0.21540135 -0.20307639
0000a0 e6 55 62 3d f1 f6 4e be 59 0a 24 3e ea 23 43 be
       0.0552577 -0.20211388 0.16019572 -0.19056669
0000b0 3d 56 34 be 0e 0d 43 bd 68 4d 51 3e 35 da 41 3e
       -0.17611022 -0.04761987 0.20439684 0.18930896
0000c0 58 1e e7 bc 18 9b 52 3b 21 80 12 3e bd cc fe bd
       -0.028212711 0.00321359 0.1430669 -0.124413945
0000d0 96 d0 08 3e fa 74 08 bc 50 22 4d be 34 0f 0d 3e
       0.13360819 -0.008328671 -0.2003262 0.13775331
0000e0 e4 8c 6a 3d c8 81 b8 3d 9e 81 f9 bd 76 3d ea bc
       0.05726327 0.09009129 -0.12182926 -0.02859376
0000f0 ba 68 fe 3d 44 51 89 3c 2a b3 1a bd ce 0f 2a 3e
       0.12422319 0.016762383 -0.03776852 0.16607592
000100 57 d6 64 3d d0 8a 22 be 72 3c 2c 3e d0 59 a1 3d
       0.055868473 -0.15873265 0.16819933 0.078784585
000110 45 41 21 3e b7 3b ee 3d 3f 14 01 3d 72 b8 15 3e
       0.15747555 0.116324835 0.03151345 0.14621142
000120 31 cc 16 be f8 3f cc bd 00 9b ce 3d 0f d8 16 bc
       -0.1472633 -0.099731386 0.10088158 -0.009206786
000130 13 41 38 be 55 e7 41 bd 82 5f b4 bd 08 f8 56 3e
       -0.17993574 -0.047339756 -0.08807279 0.20993054
000140 6f 7e 1e be bf de da 3d a1 c4 44 3e c3 a1 18 be
       -0.15477918 0.10687017 0.19215633 -0.14905457
000150 f4 21 dc bc aa d2 11 be d0 d4 df bd d2 18 20 be
       -0.026871659 -0.14240518 -0.10929263 -0.15634468
000160 76 b3 9b 3d dd 1c 1b 3d 5c 92 d0 bd 69 ba 5a bd
       0.07602589 0.037869323 -0.10184166 -0.05340043
000170 76 c4 4e be 4d 07 e6 bd 4e dc a1 3b 0e fe fa bd
       -0.20192131 -0.11231861 0.0049395924 -0.12255488
000180 99 fb 1f be 78 58 39 3e 33 23 88 3d e0 ea 3a bd
       -0.1562332 0.18100154 0.06647339 -0.04563415
000190 41 76 46 bc 3e 29 c9 bc 31 73 99 bd 8e d3 d8 bd
       -0.012113155 -0.024555799 -0.07492674 -0.10587226
0001a0 83 ee 42 be 2d b4 bd bc 3a 7b 36 3e b8 17 c4 3c
       -0.19036298 -0.023157204 0.17820445 0.023937091
0001b0 de 91 41 3e e7 1a 4f bd a4 99 8f bb 32 44 f3 bd
       0.189033 -0.050562765 -0.004382329 -0.118782416
0001c0 99 4b 5a be 6f ed 19 3d 04 f9 59 be 98 59 c3 bc
       -0.213179 0.03757995 -0.21286398 -0.023846433
0001d0 f8 30 44 3e 94 61 c2 3d cb de 28 3e d3 08 10 3c
       0.19159305 0.09491268 0.16491239 0.008791166
0001e0 c1 b7 8f bc 75 0d 0f 3e 4e 30 b8 3c fd 02 3b bd
       -0.017543675 0.13969977 0.022483971 -0.045657147
0001f0 56 ff 07 3e d3 8e 8f 3d 92 66 11 be 58 0f 8f bd
       0.13280997 0.070096634 -0.14199284 -0.069853485

encoder_layer.linear2.weight f4 [21, 128]
000000 61 1a 40 3d 96 ad e1 3c 90 fd 53 3d 9c db 79 3d
       0.046900157 0.027548593 0.051755488 0.06100045
000010 ff 38 4d 3d 17 ea c7 bc 16 54 a3 bc ef 39 71 3b
       0.050103184 -0.024403615 -0.019937556 0.0036808213
000020 3d a9 7d bc ae 37 9e bd 7f 67 b2 bb cb e5 9c 3d
       -0.015482244 -0.07725464 -0.0054444666 0.07661017
000030 4d 5f be bc 1d 82 77 3d 63 ee 02 bd 9e 81 cf 3c
       -0.023238802 0.06042682 -0.031965625 0.025330361
000040 20 af b0 3c f5 3c 83 bd 77 d0 95 3d 8d 1e 39 bd
       0.021567881 -0.06408111 0.07315152 -0.04519515
000050 61 b9 0c 3d 63 26 1d 3d 5e b3 0a 3c 2e fc 4d 3d
       0.03435648 0.038366687 0.008465616 0.050289325
000060 5e b6 93 bc 92 d5 30 bd 99 de 56 3d e8 5d c7 bc
       -0.018031295 -0.043172427 0.05245838 -0.02433677
000070 ce 4c 23 bd f1 58 a5 bd 0f 56 a9 3d 9b 2d 6c 3c
       -0.03986817 -0.08073605 0.082683675 0.01441517
000080 a1 fd 83 bc 70 de fb 3c 58 6e 88 bd c4 23 52 3d
       -0.01611215 0.030745715 -0.066616714 0.05130364
000090 c6 43 13 3d 85 51 9e bd da 99 63 bd 3b b0 12 bd
       0.035953306 -0.07730392 -0.055566646 -0.035812598
0000a0 97 ee 01 bd b5 de ae 3c b6 af 23 3d c7 1d 74 bd
       -0.031721678 0.02134643 0.039962493 -0.05959871
0000b0 c6 db 05 bd d8 94 f9 3c 92 38 76 3d 57 6d b4 3c
       -0.032680295 0.030466482 0.060112543 0.022024794
0000c0 2c 6a 94 3d 51 1f 85 3d a8 a2 f8 bb 0a 9f 12 3d
       0.07246813 0.06500114 -0.0075877495 0.035796203
0000d0 00 2b 0f 3d 29 ce 9d 3d ce c8 03 bd 6d cb 6e bd
       0.034953117 0.077053376 -0.032173924 -0.05829947
0000e0 3c cb 44 bc eb 74 82 bb 02 76 c8 3b 62 aa 34 3d
       -0.0120113455 -0.003981223 0.0061175833 0.044107802
0000f0 ac fa 9b ba 76 72 7d 3d 65 9c fe 3c 60 37 76 3d
       -0.0011900268 0.061876737 0.031080434 0.060111403
000100 2c fb b2 3c 0c fc a5 3d 36 52 59 3d 1e 5d 89 bd
       0.021848284 0.08104715 0.053056918 -0.06707214
000110 76 c6 98 bd 4d e0 36 bb da 4e ab bd 29 62 da 3b
       -0.074597284 -0.002790469 -0.08364649 0.0066645336
000120 22 8c 86 bd 6d fe 39 3d cb 0c 6c bd 1a d6 95 3d
       -0.06569697 0.045408655 -0.057629388 0.07316227
000130 05 f6 19 3d c0 4a 34 3d 90 08 37 3c 3e dc 83 bd
       0.037588138 0.0440166 0.011171475 -0.06438492
000140 56 b6 94 bd d8 b5 18 3d bd 33 14 bd 4c 81 82 bd
       -0.0726134 0.037282795 -0.036182154 -0.06372318
000150 64 2b 9f 3d 23 43 7b 3d 3a b3 a9 ba 9b 28 bf 3c
       0.07771948 0.061343323 -0.001294709 0.023334792
000160 df 8b a5 bc 30 c1 d4 bc 71 45 69 3d de 5b 4a 3d
       -0.020208297 -0.025971025 0.05695099 0.049404018
000170 fd a7 40 3c 7b cd a8 3c ee c9 64 bd 55 12 ae bc
       0.0117588015 0.020605793 -0.055856638 -0.021248976
000180 bf 84 85 bd 86 59 af bd 40 9e 84 3c f5 3a 08 3d
       -0.0651946 -0.08561997 0.01618874 0.03325935
000190 87 0a fb bc df 36 1b 3d 59 37 92 3d 65 7c 98 3d
       -0.030644668 0.037894126 0.07139463 0.074456014
0001a0 db 86 3c 3d 6a f7 08 3d e0 b8 80 bd 97 08 27 bd
       0.046027046 0.033439077 -0.06285262 -0.040779676
0001b0 16 5f da 3c 49 38 8a 3d e5 e5 3c bd 4a 70 30 3d
       0.026656669 0.06749017 -0.046117682 0.043075837
0001c0 f1 d6 7e bd 6e 19 ad 3d ac 24 92 bd 82 61 08 bd
       -0.062216703 0.08452116 -0.07135901 -0.033296116
0001d0 77 50 8e bd a7 9c 7b bc 07 dd a2 bd a0 67 a0 bd
       -0.06948941 -0.015357173 -0.07952314 -0.07832265
0001e0 08 0b 38 bd d7 05 40 bd bf b6 b0 3d 15 96 c2 bb
       -0.044932395 -0.04688057 0.08628606 -0.0059383013
0001f0 75 71 70 3d 4f 8b aa bd 24 f1 4b bd ca 05 b2 bd
       0.05870195 -0.08327352 -0.049790516 -0.086925104
000200 a2 84 8b 3d 0e ff 9c bd 87 63 67 3c 89 a7 3e bd
       0.06812407 -0.07665835 0.01412285 -0.046546493
000210 45 b4 2c bd e5 bf 84 3d c0 31 59 bd 90 40 5c bc
       -0.042164106 0.064819135 -0.05302596 -0.013443127
000220 11 aa af bc ce 5e 40 3c f2 b1 20 3d 5e c8 90 bd
       -0.021443399 0.011741353 0.039232202 -0.07069467
000230 a4 11 3c 3d 34 e0 6f bc b6 f5 f6 3a df da 9c 3d
       0.04591526 -0.0146408565 0.0018841538 0.07658934
000240 04 31 da bb 76 82 8e bd 0e 7c 1b bd e9 30 96 3c
       -0.006658675 -0.06958477 -0.037960105 0.018333869
000250 7f ef 31 bd a1 87 3a 3b 09 99 bb 3c ff dd 89 3c
       -0.043441292 0.0028462189 0.022900121 0.016829489
000260 aa dd 87 bd 1d ef 95 bd 29 2c a4 3d c6 bf 9b 3d
       -0.06634076 -0.07320998 0.080162354 0.07604937
000270 8c e3 2a 3d e4 99 8d 3d a9 c2 d1 bb d7 7c ae bd
       0.04172091 0.06914118 -0.006401379 -0.08519905
000280 74 c9 af bd 47 0b 62 bc 99 ca 9f bd 39 0f 59 bd
       -0.08583346 -0.013796634 -0.07802314 -0.052993033
000290 39 4b 5c bd ad 20 23 3d 6f 52 33 3c 25 ad 9b bd
       -0.053782675 0.039826084 0.010944947 -0.07601384
0002a0 0c cb 6a bd a8 1a af 3c b8 33 8d 3d f0 c9 65 3d
       -0.057322547 0.021375015 0.0689463 0.056100786
0002b0 7e ee 81 bd fb 28 85 bd 05 d8 1c 3d fd a0 4a bd
       -0.06344317 -0.06501957 0.03829195 -0.049469937
0002c0 ea c6 44 3d 0f 2d 85 3d b7 c4 82 bd d8 14 62 bd
       0.04804126 0.06502735 -0.06385177 -0.05519566
0002d0 f7 cf 6a 3d 1e 96 3f bc f3 9b 98 bd 6b 37 24 3d
       0.057327237 -0.011693506 -0.0745162 0.040091913
0002e0 84 7c 46 3d 8b 7d 70 3d 11 77 05 3d 0c 6f 1c 3d
       0.04845859 0.058713477 0.032584254 0.03819184
0002f0 60 d4 90 3d 3a 00 29 bd 72 ec a9 bd 27 91 83 3d
       0.07071757 -0.04125998 -0.082970515 0.0642417
000300 fa ea 90 3d 80 12 4b bd 4c c9 ae bd 58 70 52 3a
       0.07076068 -0.04957819 -0.08534488 0.0008027605
000310 ad 6f 14 3d 35 48 ae 3d 5d 79 25 bd ac f3 96 bd
       0.036239315 0.08509866 -0.040398944 -0.073706955
000320 a9 e9 92 3c cd cb e3 ba c7 53 f7 bc c9 a0 a6 3d
       0.017933683 -0.0017379463 -0.030191315 0.08136136
000330 49 bc 03 bd 06 82 c5 3c f1 18 a7 bd 9b 5d 13 3d
       -0.032161985 0.024109852 -0.08159054 0.03597794
000340 96 b3 34 bc 0c cf 2b bd f5 95 8a bd 15 a2 a0 3d
       -0.011029145 -0.041945502 -0.06766883 0.07843415
000350 ed de af bc b3 c4 54 bc c7 43 c5 3c ce 58 ec 3c
       -0.021468604 -0.01298635 0.02408017 0.02885094
000360 86 cf 89 3c d3 78 6c b9 9f 91 ae 3d 91 5f 7f 3d
       0.016822588 -0.00022551724 0.08523869 0.062347
000370 7a fb a6 bc e2 55 28 3d 8c 88 59 3b 9f 7b 33 3b
       -0.020383585 0.04109753 0.003319296 0.0027386916
000380 cb 91 a8 bd 43 91 03 bc b6 d3 a4 bb 07 0a ba 3c
       -0.08230933 -0.008030239 -0.0050301207 0.02270986
000390 14 d1 8d 3d 12 3d e0 3c 42 8e ad bb 91 3a b0 3d
       0.06924644 0.02737287 -0.0052964995 0.08604921
0003a0 43 48 90 bd 52 27 4a 3d 04 65 83 bd 33 db 92 3d
       -0.07045033 0.049353905 -0.064157516 0.07170715
0003b0 ec 10 83 bd b3 15 20 3c 44 3b 24 3d fe 8a ca 3c
       -0.06399712 0.0097707985 0.040095583 0.02472448
0003c0 39 bf 9d 3a 79 34 13 bd 55 cb be 3c ba 39 81 bd
       0.0012035138 -0.035938714 0.023290316 -0.063098386
0003d0 0c ae a6 3c 55 17 66 bd e1 87 7c 3d 60 6c 91 3c
       0.020346664 -0.056174595 0.06165302 0.017751873
0003e0 69 07 12 3d ed ce ab 3c e9 ed 54 bd 15 ac 95 3d
       0.035651598 0.020972693 -0.0519847 0.07308213
0003f0 56 bd d5 39 a7 58 74 3d 1d 1c a3 3d c3 4f ac 3d
       0.00040767592 0.059654858 0.079643466 0.08413651

encoder_layer.linear2.bias f4 [21]
000000 81 97 18 3d 03 f0 b2 bc 48 0a 1f bc 4c d1 71 bc
       0.03725386 -0.021842962 -0.009707041 -0.014759373
000010 07 fd 6b 3d 1f 35 9e bd f5 98 4a bd 44 e1 14 bd
       0.057614353 -0.07724976 -0.049462277 -0.036347643
000020 5c 15 a5 3d 7e 65 8c bd 18 ea 33 3d 98 6d 21 3d
       0.080607146 -0.068552956 0.04392442 0.039411157
000030 c4 3d 83 3d 6d ce 6f bd 76 0d 54 bd 6e 97 6e 3d
       0.06408265 -0.058546472 -0.05177065 0.058249883
000040 6e 2f 9e bd a8 ec f9 bc a7 fb 24 3d d5 58 83 bd
       -0.0772389 -0.030508354 0.040279057 -0.06413428
000050 f3 e3 98 3c
       0.018663382

encoder_layer.norm1.weight f4 [21]
000000 00 00 80 3f 00 00 80 3f 00 00 80 3f 00 00 80 3f
       1.0 1.0 1.0 1.0
000010 00 00 80 3f 00 00 80 3f 00 00 80 3f 00 00 80 3f
       1.0 1.0 1.0 1.0
000020 00 00 80 3f 00 00 80 3f 00 00 80 3f 00 00 80 3f
       1.0 1.0 1.0 1.0
000030 00 00 80 3f 00 00 80 3f 00 00 80 3f 00 00 80 3f
       1.0 1.0 1.0 1.0
000040 00 00 80 3f 00 00 80 3f 00 00 80 3f 00 00 80 3f
       1.0 1.0 1.0 1.0
000050 00 00 80 3f
       1.0

encoder_layer.norm1.bias f4 [21]
000000 00 00 00 00 00 00 00 00 00 00 00 00 00 00 00 00
       0.0 0.0 0.0 0.0
000010 00 00 00 00 00 00 00 00 00 00 00 00 00 00 00 00
       0.0 0.0 0.0 0.0
000020 00 00 00 00 00 00 00 00 00 00 00 00 00 00 00 00
       0.0 0.0 0.0 0.0
000030 00 00 00 00 00 00 00 00 00 00 00 00 00 00 00 00
       0.0 0.0 0.0 0.0
000040 00 00 00 00 00 00 00 00 00 00 00 00 00 00 00 00
       0.0 0.0 0.0 0.0
000050 00 00 00 00
       0.0

encoder_layer.norm2.weight f4 [21]
000000 00 00 80 3f 00 00 80 3f 00 00 80 3f 00 00 80 3f
       1.0 1.0 1.0 1.0
000010 00 00 80 3f 00 00 80 3f 00 00 80 3f 00 00 80 3f
       1.0 1.0 1.0 1.0
000020 00 00 80 3f 00 00 80 3f 00 00 80 3f 00 00 80 3f
       1.0 1.0 1.0 1.0
000030 00 00 80 3f 00 00 80 3f 00 00 80 3f 00 00 80 3f
       1.0 1.0 1.0 1.0
000040 00 00 80 3f 00 00 80 3f 00 00 80 3f 00 00 80 3f
       1.0 1.0 1.0 1.0
000050 00 00 80 3f
       1.0

encoder_layer.norm2.bias f4 [21]
000000 00 00 00 00 00 00 00 00 00 00 00 00 00 00 00 00
       0.0 0.0 0.0 0.0
000010 00 00 00 00 00 00 00 00 00 00 00 00 00 00 00 00
       0.0 0.0 0.0 0.0
000020 00 00 00 00 00 00 00 00 00 00 00 00 00 00 00 00
       0.0 0.0 0.0 0.0
000030 00 00 00 00 00 00 00 00 00 00 00 00 00 00 00 00
       0.0 0.0 0.0 0.0
000040 00 00 00 00 00 00 00 00 00 00 00 00 00 00 00 00
       0.0 0.0 0.0 0.0
000050 00 00 00 00
       0.0

transformer_encoder.layers.0.self_attn.in_proj_weight f4 [63, 21]
000000 8a 7f 50 be 64 6a 30 3e 28 c9 66 bd 33 2b d3 bd
       -0.20361152 0.17228085 -0.05634418 -0.10310974
000010 28 c8 50 3e b6 de 08 3c 78 b7 be 3d 6f 48 48 be
       0.20388854 0.00835388 0.09312338 -0.19558881
000020 cb d8 a6 bd d7 5f 19 bd be dd da bd 3a 59 5e 3e
       -0.08146819 -0.037444916 -0.10686825 0.21713725
000030 82 94 ee bd 83 55 74 be a7 6e 8f 3d 3d 00 0b 3e
       -0.11649419 -0.23860745 0.07003527 0.1357431
000040 5e 71 ae 3c 32 84 7f 3d 28 f2 82 3d f4 bc 32 3e
       0.021294292 0.06238193 0.06393844 0.17454892
000050 8b 9f d0 bd a7 e3 fa bd 06 70 9e 3c f7 1b bd 3d
       -0.101866804 -0.122504525 0.019340526 0.092338495
000060 7b 65 3e be 3b 7f 72 3e 96 c0 7d 3e e4 79 2b be
       -0.18593399 0.23681347 0.24780497 -0.16745716
000070 f5 31 8b bd 5b 13 ee 3c 32 e3 eb bd ed 81 61 bd
       -0.06796638 0.029061964 -0.115179434 -0.055055548
000080 80 3c 72 3d 62 c4 72 be 03 66 81 be c9 39 87 3e
       0.05913973 -0.23707727 -0.2527314 0.26411274
000090 94 e3 28 3d 44 5b 02 bd ac eb 5f be df 75 09 3e
       0.04123266 -0.03182532 -0.21867245 0.1342387
0000a0 cf 4a 4e bd d2 f2 55 bc 88 7b ac 3b dc bf ce bc
       -0.05036431 -0.013058381 0.0052637495 -0.02523797
0000b0 12 44 0f be 66 7c 30 3c 34 d5 37 3e 84 d9 ae 3d
       -0.1399081 0.010771846 0.17952424 0.085375816
0000c0 39 40 4d bd 7e 4c 87 be 72 06 11 3e 31 a8 d4 3c
       -0.050110076 -0.26425546 0.14162615 0.025959106
0000d0 54 69 80 3e 40 ea 8c 3e d8 a5 eb bd e4 6a e4 3c
       0.2508036 0.2752247 -0.115062416 0.027883
0000e0 48 4e 76 bd b1 98 1b 3d 11 95 42 3e 85 77 41 3e
       -0.06013325 0.037987415 0.19002177 0.1889325
0000f0 8c 1a 0b 3e 3c 09 19 3e 7d f4 c6 bc 92 33 01 bd
       0.13584346 0.14944929 -0.024286503 -0.031543322
000100 e5 e1 f0 bc da dd 10 3d ee 2b d4 bd 07 61 20 bd
       -0.02940459 0.035367824 -0.103599414 -0.039155032
000110 90 67 e7 bc b1 84 d5 3d 99 69 5b be 1c ca 07 be
       -0.028247625 0.104256995 -0.21427001 -0.13260692
000120 9f 5e 50 be 51 ef 12 bd 55 8a 83 3e fb b8 40 3e
       -0.20348595 -0.03587276 0.25691476 0.18820564
000130 be 72 94 3e 4a 5a 21 be 82 95 ef bc 22 f8 c4 3c
       0.2899379 -0.15757099 -0.029246096 0.0240441
000140 3d 24 b5 bd f0 f9 3a be dc 61 5e be 65 fa a4 bd
       -0.088448025 -0.18259406 -0.21717018 -0.080555715
000150 07 94 0e 3d c7 48 42 be 10 e8 2c 3e bb 70 8a 3c
       0.03480914 -0.18973075 0.168854 0.016899457
000160 8a f1 ca bd 21 b0 59 3e 9b 4b 30 3e a8 5b 9b 3e
       -0.09909351 0.21258594 0.17216341 0.30343366
000170 df cb 68 3d fc 16 6f be 84 f1 6b 3e 9b 9f 70 bc
       0.05683505 -0.23348612 0.2304135 -0.01468649
000180 7d 1b 98 bc 69 28 40 3e bd 54 27 3e e5 5b 04 3e
       -0.018567795 0.18765415 0.16340919 0.1292568
000190 e9 2c 13 3d 2b b6 6b 3b 25 95 96 bd a6 b9 6b be
       0.0359315 0.0035966735 -0.07352666 -0.23020038
0001a0 b1 77 28 be 0b 4d 45 be f4 95 a3 bd 88 a1 65 3d
       -0.16451909 -0.19267671 -0.07987586 0.05606225
0001b0 bd b9 90 be 3e 99 95 bd 89 bd 3e 3d fd 1f 65 be
       -0.28266707 -0.07304619 0.046567474 -0.22375484
0001c0 4b aa d8 bd aa 49 26 3d 79 f3 02 3d b3 87 0c be
       -0.10579356 0.040597595 0.031970475 -0.1372364
0001d0 da bd db ba 7c 35 09 3e d2 78 87 be 3a 2a ce bd
       -0.0016764954 0.13399309 -0.26459366 -0.10066648
0001e0 bd f6 ee 3c 10 d4 2a 3e 42 17 9d 3d e7 23 d3 3d
       0.029170388 0.16682458 0.07670452 0.10309582
0001f0 fa 3b 05 3d 7e 54 95 be 07 ed 8b 3d a5 31 e9 3d
       0.0325279 -0.29166025 0.06832319 0.11386422
000200 b4 e3 e2 3d 6e 0a c7 3d a1 4e 33 3d 28 53 d3 3d
       0.11078587 0.09718786 0.04377616 0.10318595
000210 90 41 90 3c 74 74 82 3e b0 7a 5c bd 5d b6 93 bd
       0.017609388 0.25479472 -0.05382794 -0.072125174
000220 71 f4 90 3c f2 14 7e be 3c af 71 be 41 6e 05 be
       0.017694684 -0.24812678 -0.23602003 -0.1303034
000230 e0 4c 93 3e fa 80 6a be e6 0e 55 3d 8b 84 66 be
       0.28769588 -0.22900763 0.05201616 -0.22511499
000240 2e 53 6b be 35 ff 48 3e e2 71 38 3e 40 60 1f 3d
       -0.2298095 0.19628604 0.18012193 0.03891015
000250 47 f1 d2 3d a3 df 34 3d 19 aa 6f be 75 3f 2d 3c
       0.10299926 0.04415859 -0.23404731 0.010574211
000260 aa fc 78 3e 47 f4 9f bd 75 e9 33 be bc 25 a2 bb
       0.24315134 -0.07810264 -0.17569526 -0.004948346
000270 49 47 92 3e 84 fc 81 3e 90 7a 06 3b 9a 07 18 be
       0.2857001 0.25387967 0.002051983 -0.1484665
000280 d4 81 1a be 08 ed 0f be 49 6e 61 3d 0b fb 17 be
       -0.15088588 -0.14055264 0.055036817 -0.14841859
000290 7c fa 79 bc 59 fe f6 3d 80 dd 31 3e f7 48 6b 3e
       -0.015257474 0.12060232 0.17369652 0.22977053
0002a0 37 70 dd bc 3e 85 72 be 74 dd 28 3e 7f 90 32 bc
       -0.027031047 -0.2368364 0.16490728 -0.010898708
0002b0 e1 b7 58 3e ba c5 9a be 8f c8 4b 3e 34 3f 37 3d
       0.21163894 -0.30228978 0.19900726 0.04473801
0002c0 0b b6 79 3e 82 45 bc bd 3a c3 52 be 8b 4b 37 3e
       0.2438585 -0.09192945 -0.20582286 0.17899911
0002d0 29 4a 75 bd 52 f7 7a bd 05 5e 1d be 4b 14 fb bd
       -0.059885178 -0.06127102 -0.15367897 -0.1225973
0002e0 80 df 83 be e8 a7 2e 3d 34 fb 05 3e da 4e 28 3e
       -0.25756454 0.042640597 0.13084108 0.1643633
0002f0 85 9a 5d 3e 53 80 6e bd f8 b7 66 bd 8c c4 08 be
       0.21640976 -0.05822785 -0.05632779 -0.13356227
000300 b1 d6 dd 3d 3a fc 45 be 82 19 69 3e 06 81 80 be
       0.10831965 -0.19334498 0.22763637 -0.25098437
000310 1b ae dc 3d 71 af 9a 3e aa 04 93 be f3 c1 ca bd
       0.107753955 0.30211976 -0.28714496 -0.09900274
000320 13 ae 20 3e 96 c5 5f bd 80 fd 9e 3e 73 e0 20 3e
       0.15691404 -0.054631792 0.3105278 0.1571062
000330 f7 09 01 be 52 60 28 3e 8d 4f 73 3d e9 52 b8 3d
       -0.12601458 0.16442993 0.059402037 0.09000189
000340 b4 5e 57 bd 5d a2 ac 3c b1 60 69 3e 8b 58 59 bd
       -0.05258055 0.021073515 0.22790791 -0.053062957
000350 a1 f4 61 bd 09 3d 89 bd da c6 37 3e 81 49 19 3e
       -0.055164937 -0.06701095 0.1794695 0.14969446
000360 df 86 14 3e 65 7f 28 3e 97 29 23 3e 9d d5 0f 3d
       0.14504574 0.16454847 0.15933834 0.035115827
000370 75 0a fb bb de 6c e4 3d 29 f7 3a be bb 1d be bd
       -0.0076611587 0.11153577 -0.18258347 -0.092830144
000380 d0 c4 27 bc 35 1b 71 be 78 52 89 bc 55 37 d6 bd
       -0.010239795 -0.23545535 -0.016762957 -0.104597725
000390 2b 81 81 bd 07 16 6d be 68 a8 62 bd 12 5f 3f 3e
       -0.06323465 -0.23152934 -0.055336386 0.1868861
0003a0 b9 8c af 3d 80 3b 5a bd 2d a0 83 be c6 29 3d bc
       0.085717626 -0.0532794 -0.25708142 -0.011545604
0003b0 95 8c 55 3e bf 22 47 be 21 8d 77 3e 74 4c 1d 3e
       0.20854409 -0.19446848 0.2417493 0.15361196
0003c0 88 0b 25 bd 7e 6d cd 3c ea b0 00 3e eb 59 d5 3c
       -0.0402942 0.025076624 0.12567487 0.026043853
0003d0 e7 df ff bd 48 ab 5e 3e a7 25 78 3e 11 69 9d bd
       -0.12493878 0.21745026 0.24233113 -0.076860555
0003e0 1b 1f 81 3d 65 be b4 bd 7c 17 0d 3e 2b 72 7e 3d
       0.06304761 -0.088253774 0.1377849 0.062120598
0003f0 f4 5c 4d be a4 df 80 be 30 98 5f 3e fc 5f 93 be
       -0.2005499 -0.25170624 0.21835399 -0.28784168

transformer_encoder.layers.0.self_attn.in_proj_bias f4 [63]
000000 d4 bd 87 bc 1d 9d ce bc 37 ed 05 3d 04 78 5a bc
       -0.01657001 -0.025221402 0.03269693 -0.013334278
000010 f2 ca 31 3d 58 91 f9 3c 29 52 60 3d d5 80 21 3d
       0.043406434 0.030464813 0.054765854 0.039429504
000020 17 5f 4a bc c5 49 0a bc 7c 8d 40 bc 21 c7 d3 3c
       -0.012351773 -0.00844044 -0.0117524825 0.025851788
000030 15 40 49 bd bd 63 fe bc 31 b8 81 bd 3b 5a e2 bc
       -0.04913338 -0.031053418 -0.0633396 -0.027630916
000040 97 9f a6 3b 80 3e 5b 3c a5 09 1d bb 6b 72 e1 bb
       0.0050849426 0.0133816 -0.0023962047 -0.0068800948
000050 12 9b e4 3c 9f c3 7c bc 29 9c 71 bc 61 6c ff bb
       0.027905975 -0.015427499 -0.014746704 -0.007794902
000060 38 8f 03 3c aa 53 b8 3b c3 e9 25 bc 81 54 57 3c
       0.0080297515 0.005625208 -0.010126534 0.013142706
000070 89 d7 7f bb 8e 83 24 bb f6 c7 9c 3b 24 8b 5c bb
       -0.003903838 -0.0025102827 0.0047845794 -0.003365227
000080 67 ea 5a bb 3a dc b0 3b 2c 1e fd 39 4c 3f a2 3a
       -0.0033403875 0.005397347 0.000482784 0.0012378483
000090 da 58 06 bc 80 84 27 3b 85 fd 88 bb ef c0 17 bc
       -0.008199895 0.0025561154 -0.0041806125 -0.009262308
0000a0 50 d7 12 bc e3 87 c8 3b 16 69 a7 3c 4f ea 60 bb
       -0.008962467 0.0061197146 0.020435851 -0.0034319346
0000b0 18 26 3e 3a f1 8e 4e bd 29 9a e4 bc f5 ab 33 3d
       0.0007253601 -0.05042929 -0.02790554 0.043865163
0000c0 bb 9d c2 3c 31 af 13 bc 9f 2c 0e 3d a9 07 a4 bc
       0.023756852 -0.009013937 0.034710523 -0.020023184
0000d0 d4 a5 9d 3b f8 2c c3 3c ed 3c 4d 3c 0d 0f 50 bd
       0.004811028 0.023825154 0.012526733 -0.050795604
0000e0 ee 77 2d 3d 3e ad 06 bd a2 36 ee b9 76 2d cb 3c
       0.042350702 -0.03288006 -0.00045435602 0.02480195
0000f0 5b 4e e4 ba f8 0f 57 bc 22 a0 0e 3d
       -0.0017418371 -0.013126366 0.034820683
